checkpoint.pth (torch_old, 54445 bytes, 6 tensors)

fc1.weight f4 [128, 37]
0	0xbd9b9a4b	-0.075977884
1	0xbdf2ef1a	-0.11862011
2	0x3cceb50d	0.025232816
3	0xbdb11a07	-0.086475424
4	0xbee93f70	-0.4555621
5	0x3d960e2d	0.073269226
6	0xbd1fd5d5	-0.039022285
7	0x3e109919	0.14120902
8	0x3dcf43b3	0.101203345
9	0x3c36cf69	0.011157849
10	0xbe50d181	-0.2039242
11	0x3dd7f23d	0.1054425
12	0xbf334a64	-0.70035386
13	0x3e2ddc76	0.1697863
14	0x3d01432d	0.031558204
15	0x3d838c99	0.06423301
16	0xbe16ade3	-0.1471477
17	0x3e90552d	0.28189984
18	0xbe6f7b42	-0.23386863
19	0xbe77130c	-0.2412836
20	0xbd3ffcfb	-0.04687212
21	0xbc937a48	-0.018002644
22	0x3e785a18	0.24253118
23	0x3db5db6a	0.088797405
24	0x3e5be344	0.21473414
25	0x3dfd9009	0.12380988
26	0xbdc01802	-0.09379579
27	0xbd7ca75b	-0.06168304
28	0xbdd966aa	-0.10615285
29	0x3e4d5f5f	0.20055912
30	0xbde2a0ae	-0.110658035
31	0x3e35c9ca	0.17752758
32	0xbe1f73ef	-0.15571569
33	0xbdbc33ce	-0.091895685
34	0xbb8a942e	-0.00422909
35	0xbd94083f	-0.07228135
36	0xbd61a16f	-0.055085596
37	0x3eee7d8f	0.4658017
38	0xbf29d038	-0.6633334
39	0xbdeafd77	-0.11474126
40	0xbe9ff2d3	-0.31239948
41	0xbfd968c8	-1.6985102
42	0xbe20608b	-0.15661828
43	0xbd7a897d	-0.061166275
44	0xbd82bbc8	-0.06383473
45	0x3dce5116	0.1007406
46	0x3e16e08f	0.147341
47	0x3c40eef0	0.011775717
48	0xbb254f41	-0.002522424
49	0x3db7f698	0.08982581
50	0x3e0af7a6	0.13571033
51	0x3e5c6766	0.21523818
52	0x3c70f844	0.014707629
53	0x3d3137c7	0.043266084
54	0x3df2dd01	0.118585594
55	0xbd752537	-0.059849944
56	0x3cdd5000	0.027015686
57	0xbdf2e7bb	-0.11860605
58	0xbcd1c569	-0.025606828
59	0xb9cc9265	-0.00039018985
60	0x3c828051	0.015930327
61	0x3d8fa0db	0.070131026
62	0x3bab3537	0.0052248496
63	0x3d9eef16	0.07760446
64	0x3df0077e	0.11720179
65	0xbdad31fd	-0.084568
66	0x3d8b196c	0.06791958
67	0xbdadec22	-0.084923044
68	0x3e848374	0.2588154
69	0x3e0fef49	0.14056124
70	0xbde85f6c	-0.11346325
71	0xbe0622fc	-0.13099283
72	0xbcda2454	-0.02662865
73	0xbc01a92a	-0.007913867
74	0xbe860c11	-0.2618108
75	0xbd8b352d	-0.06797252
76	0x3ebf8a37	0.37410137
77	0xbe69bf74	-0.2282694
78	0xbde15f77	-0.110045366
79	0xbed88cb7	-0.42294857
80	0xbe4e6464	-0.20155483
81	0x3e33d95b	0.17563383
82	0x3e41d98c	0.18930644
83	0xbe875531	-0.26432183
84	0xbc8ae539	-0.016955005
85	0x3d50fcd8	0.05102238
86	0xbdc7a985	-0.0974913
87	0xbec182a4	-0.37794983
88	0x3d8ccc9f	0.06874966
89	0xbd5ad8db	-0.053429466
90	0xbdad8e4b	-0.08474406
91	0x3dcdf451	0.10056365
92	0x3d02cb2e	0.03193205
93	0xbed1d74e	-0.40984577
94	0xbe1f2c7e	-0.15544316
95	0xbf04b059	-0.51831585
96	0x3e7299a7	0.23691426
97	0x3e10f5f8	0.1415633
98	0xbe9c7894	-0.30560744
99	0xbeb0badf	-0.3451757
100	0x3dcb94ae	0.09940468
101	0x3e1885d9	0.14894809
102	0x3ddd0547	0.10792022
103	0x3cc6a046	0.024246346
104	0xbd21dff3	-0.039520215
105	0x3e490898	0.19632185
106	0xbec2c495	-0.38040605
107	0xbf01a0d6	-0.5063604
108	0x3db11007	0.08645635
109	0x3dd8ba76	0.105824396
110	0xbd1099e6	-0.03530302
111	0x3ddbdabe	0.10735081
112	0x3d8e865e	0.06959222
113	0x3d1fa7ec	0.038978502
114	0x3e253514	0.16133529
115	0x3c97cb53	0.01852957
116	0xbdb44f39	-0.08804173
117	0xbb9687e2	-0.004593835
118	0x3d8b4237	0.06799739
119	0x3e8e059f	0.27738664
120	0x3dd0f309	0.10202605
121	0x3d7af4b8	0.06126854
122	0xbd11e16a	-0.035615362
123	0x3d1c7484	0.038197055
124	0xbe5b4cda	-0.21416035
125	0xbe636b6d	-0.22208948
126	0xbe44c514	-0.19215804
127	0xbde6aedb	-0.1126382
128	0xbbe348d4	-0.006936172
129	0xbb17bc0f	-0.0023152863
130	0x3d0a3a37	0.033746924
131	0x3eb1f6ea	0.34758693
132	0xbf65da35	-0.8978608
133	0xbf3c0413	-0.73443717
134	0xbead21dd	-0.33814898
135	0xbfc925b1	-1.5714628
136	0x3afb100a	0.001915456
137	0x3cd88c48	0.026434079
138	0x3d83839e	0.06421588
139	0x3da2643b	0.07929274
140	0x3e96c87a	0.29449826
141	0xbe4425a3	-0.19154982
142	0x3eaa8bed	0.3330988
143	0x3e426194	0.18982536
144	0x3deeb893	0.116562985
145	0x3d9ae15e	0.07562517
146	0x3bd4c332	0.0064929957
147	0x3c8c689c	0.017139725
148	0xbee15563	-0.44010457
149	0x3dcfb400	0.10141754
150	0xbe9ee1be	-0.31031603
151	0xbea32f55	-0.3187205
152	0xbeefe535	-0.4685456
153	0xbe247ffd	-0.16064449
154	0x3d1ef361	0.038806323
155	0x3df1b820	0.11802697
156	0x3cbce419	0.023057984
157	0xbde4cc2d	-0.11171756
158	0xbcf82d6f	-0.030295102
159	0xbdce186e	-0.10063253
160	0xbd20b1f0	-0.039232194
161	0xbe686041	-0.22692968
162	0xbe871828	-0.26385617
163	0xbf16538a	-0.5872122
164	0x3d7c0e0d	0.061536837
165	0x3d98d0fe	0.07461737
166	0x3d7ca60b	0.06168179
167	0xbf000116	-0.50001657
168	0x3d659f99	0.056060407
169	0xbdd9fb28	-0.106436074
170	0x3d35d274	0.044390157
171	0xbe096e56	-0.13420996
172	0x3cf862c9	0.030320542
173	0x3cb4bffa	0.022064198
174	0xbd9b9bb9	-0.07598061
175	0x3e066d18	0.13127553
176	0x3c4dc9a6	0.012560284
177	0xbe5c94b8	-0.21541107
178	0x3e1caeab	0.15301006
179	0x3d16b05b	0.03678928
180	0xbd8215dd	-0.06351826
181	0xbef56791	-0.47930577
182	0xbba59b33	-0.0050539016
183	0x3ea6cc4b	0.32577738
184	0x3d39acda	0.04533086
185	0xbdef5ba2	-0.116873994
186	0xbe0f3c26	-0.13987789
187	0x3d217804	0.039421096
188	0x3d0400f6	0.03222748
189	0x3e0da92e	0.13834068
190	0x3db7f9bc	0.0898318
191	0x3e72e65c	0.23720688
192	0xbe83e939	-0.25763872
193	0xbc3f8441	-0.011689247
194	0xbd896af3	-0.06709852
195	0x3d9f6b0c	0.077840894
196	0xbe963188	-0.29334664
197	0x3d07f116	0.0331889
198	0xbeb5c1c9	-0.3549941
199	0xbe848fb6	-0.25890893
200	0xbd8f19da	-0.06987353
201	0xbe25f78d	-0.16207714
202	0x3dc5c7c0	0.0965724
203	0xbe32357d	-0.17403217
204	0xbe1dfcd2	-0.15428475
205	0xbc35f28e	-0.011105193
206	0x3e2e1645	0.17000683
207	0x3d998b76	0.07497303
208	0xbc79efbe	-0.015254913
209	0x3c02d760	0.00798592
210	0xba6a4b7e	-0.0008937641
211	0xbc90655a	-0.017626453
212	0xbd4cb009	-0.049972568
213	0xbe599e9e	-0.21251914
214	0xbd8f74c3	-0.070046924
215	0x3dee2959	0.1162898
216	0xbe537fd4	-0.20654231
217	0xbe83c461	-0.25735763
218	0x3c854b10	0.016271144
219	0xbf365eb1	-0.7123824
220	0x3c765c6c	0.0150366835
221	0x3d731c67	0.05935326
222	0x3e9fb4c2	0.31192595
223	0xbe52e870	-0.2059648
224	0xbef06d22	-0.46958262
225	0x3d9dc3d5	0.077033676
226	0xbf8be7cb	-1.0930113
227	0xbcf46a46	-0.029835831
228	0xbdab9b85	-0.08379272
229	0xbe49c8ec	-0.19705552
230	0x3e1684cd	0.14699097
231	0x3e1b1fd8	0.15148866
232	0x3e8358fd	0.2565383
233	0xbde2b6e1	-0.11070038
234	0x3e0e7190	0.13910508
235	0xbca8c758	-0.020602867
236	0xbea92a8f	-0.33040282
237	0xbd35c8e0	-0.044381022
238	0xbd06331d	-0.03276359
239	0xbd2911a8	-0.041276604
240	0x3df4b22b	0.11948045
241	0x3df0af13	0.11752143
242	0x3d5823f3	0.05276866
243	0x3dae097d	0.084979035
244	0xbc24bb11	-0.010054366
245	0xbcea902b	-0.028633198
246	0x3e693110	0.22772622
247	0xbea16ef1	-0.31529954
248	0x3cb91fd8	0.022598192
249	0x3d1071e3	0.03526486
250	0x3d181f2b	0.0371391
251	0x3e50ab3b	0.20377819
252	0x3e348aee	0.17631122
253	0xbdd02950	-0.1016413
254	0xbd4345d3	-0.04767401
255	0xbd0f59a0	-0.034997582

fc1.bias f4 [128]
0	0xbd6a109d	-0.05714475
1	0x3d83ac26	0.06429319
2	0xbdc09152	-0.09402718
3	0xb9d7155e	-0.00041023915
4	0xbd24c7d8	-0.04022965
5	0xbe0e8b0e	-0.13920233
6	0x3dd42a78	0.10359663
7	0x3d024f35	0.03181382
8	0xbe4d640f	-0.200577
9	0x3e45169d	0.19246908
10	0xbe15248b	-0.14564721
11	0xbc8727fa	-0.016498554
12	0xbdf927da	-0.12165804
13	0xbe2fe17b	-0.17175858
14	0xbc885fe4	-0.016647287
15	0xbc94a395	-0.018144408
16	0x3d7dde17	0.06197938
17	0xbd124d2b	-0.035718124
18	0xbda0805b	-0.07836982
19	0xbca03b2a	-0.019559462
20	0xbe3b7913	-0.18307905
21	0xbd38d75a	-0.04512725
22	0x3e258d2d	0.16167136
23	0xbdd40841	-0.10353137
24	0x3e405595	0.18782647
25	0x3e2769ae	0.16348907
26	0x3e64e0c4	0.22351366
27	0xbe425989	-0.18979467
28	0xbc4c345a	-0.012463653
29	0xbde27aba	-0.110585645
30	0x3e6634e6	0.22481117
31	0x3e0cdcf1	0.13756157
32	0x3d8663e0	0.065620184
33	0x3c9b4265	0.018952558
34	0x3c43254d	0.011910749
35	0xbe759d2d	-0.23985739
36	0x3d9521f6	0.07281868
37	0x3dc2f371	0.09519089
38	0xbc7b2f61	-0.01533112
39	0x3d8f11ec	0.0698584
40	0x3d4c3e9e	0.049864404
41	0x3e3afb7a	0.18259993
42	0x3e700f28	0.23443282
43	0x3d2bc183	0.041932594
44	0x3d9af974	0.07567111
45	0xbe028130	-0.12744594
46	0xbda3ec80	-0.08004093
47	0xbe07b889	-0.13253988
48	0xbe05e993	-0.13077383
49	0x3d5277ef	0.05138391
50	0xbd99da4f	-0.07512342
51	0xbb90f9b3	-0.0044242977
52	0xbb2f16a7	-0.0026716383
53	0x3e0e8d1e	0.1392102
54	0x3d239f0e	0.03994661
55	0xb957fa88	-0.00020597328
56	0xbde7119b	-0.11282655
57	0xbe0c8013	-0.13720731
58	0x3d4bb78e	0.0497356
59	0xbc82dc73	-0.015974259
60	0xbe4d53f9	-0.20051564
61	0x3d759845	0.05995967
62	0x3d8fb777	0.07017415
63	0xbe28dd47	-0.1649066
64	0x3d8408df	0.064470045
65	0x3da1a0dc	0.078920096
66	0x3d83fb6c	0.06444439
67	0xbe05edb4	-0.13078958
68	0xbe861742	-0.2618962
69	0xbdc418dc	-0.09575054
70	0xbd196448	-0.03744915
71	0xbd5ff602	-0.05467797
72	0x3c13eea9	0.009029069
73	0xbdf14415	-0.11780564
74	0xbdc4e21f	-0.09613442
75	0x3aeb6104	0.001795799
76	0x3e010fb0	0.1260364
77	0xbd941a07	-0.07231527
78	0x3ba65af4	0.0050767604
79	0xbc19c79f	-0.009385972
80	0xbc816529	-0.015795307
81	0x3dd86764	0.10566595
82	0x3d6fa960	0.058511138
83	0xbd8c63df	-0.068549864
84	0xbda0d48c	-0.0785304
85	0x3dccc935	0.09999315
86	0x3da07fc3	0.078368686
87	0xbda30d38	-0.07961506
88	0xbcf08d2c	-0.029364191
89	0x3cf8d5bf	0.03037536
90	0x3df31b09	0.11870391
91	0xbdb78ddf	-0.08962607
92	0xbdc0c649	-0.0941282
93	0xbe570c2e	-0.2100074
94	0xbbc6be56	-0.0060651703
95	0x3e46ef7c	0.19427294
96	0xbd9ddb93	-0.07707896
97	0xbe88ee83	-0.2674447
98	0xbdbaa40b	-0.0911332
99	0x3db37acc	0.08763656
100	0xbda29c95	-0.07940022
101	0xbe806ff1	-0.25085405
102	0x3d792d01	0.060833935
103	0x3e16f4ea	0.14741865
104	0xbe443204	-0.19159704
105	0xbe4ed5c4	-0.20198733
106	0xbdeab300	-0.11459923
107	0x3e20fd8b	0.15721719
108	0xbe220b72	-0.15824679
109	0xbd02af30	-0.031905353
110	0x3d5a6832	0.053322025
111	0xbc2d4e00	-0.010577679
112	0xbe1b99ee	-0.15195438
113	0xbd4d1f9c	-0.050078973
114	0xbce46f52	-0.027885113
115	0x3dbf82c4	0.093511134
116	0x3d9444ee	0.0723971
117	0x3dba337b	0.0909185
118	0x3d3031f2	0.04301638
119	0xbb49c13b	-0.003078534
120	0x3e037681	0.12838174
121	0xbd2a3dca	-0.041562833
122	0xbd98a450	-0.07453215
123	0xbe89c933	-0.26911315
124	0x3b7bc165	0.0038414833
125	0xbc107e78	-0.008819215
126	0x3e4b705b	0.19867079
127	0xbc221e30	-0.009894893

fc2.weight f4 [64, 128]
0	0xbe202182	-0.15637782
1	0xbea4f7af	-0.32220218
2	0xbe7e332f	-0.24824212
3	0xbdc7df5a	-0.09759398
4	0x3d8c66b3	0.06855526
5	0x3dcf5398	0.10123366
6	0x3d646c77	0.055767503
7	0xbc86e78b	-0.01646783
8	0xbdf455c5	-0.11930422
9	0x3d4184b3	0.047245692
10	0x3b7579bc	0.0037456593
11	0x3d8a6d10	0.06759083
12	0xbdf82b96	-0.12117688
13	0xbe3a865d	-0.18215318
14	0xbe91d56e	-0.28483146
15	0x3d06b58d	0.032887984
16	0xbda0048a	-0.07813366
17	0x3dc75792	0.097334996
18	0xbe2c70b0	-0.16839862
19	0xbea80c5c	-0.3282193
20	0xbd1abf32	-0.037779994
21	0xbe256167	-0.16150437
22	0xbeb65a2c	-0.3561567
23	0x3d8a0165	0.06738547
24	0xbe4ed654	-0.20198947
25	0xbdbd8ec2	-0.092557445
26	0xbc71a69c	-0.014749195
27	0x3dba51f8	0.090976655
28	0x3c5ccbb3	0.0134763
29	0xbe5337c2	-0.20626739
30	0x3e26b64d	0.1628048
31	0x3e12302d	0.1427619
32	0x3e4309a3	0.19046645
33	0x3d04f265	0.032457728
34	0xbb6d763f	-0.003623381
35	0xbd9fdc24	-0.0780566
36	0xbc1b5799	-0.009481334
37	0x3e3a4bae	0.18192932
38	0x3eb40e79	0.35167292
39	0xbedb3057	-0.42810318
40	0xbe2d0ee6	-0.16900215
41	0xbe9c9507	-0.3058245
42	0xbf11dcad	-0.5697735
43	0x3e1cf83f	0.15329073
44	0x3bd2140e	0.006411082
45	0x3d4a3187	0.04936364
46	0xbe83c5a5	-0.25736728
47	0x3d5a5009	0.053298984
48	0x3c877fa0	0.016540349
49	0xbe54d3c9	-0.20783915
50	0xbdfb694e	-0.12275945
51	0xbe8bfad8	-0.27339816
52	0xbdfe1cd3	-0.124078415
53	0xbe8e4438	-0.27786422
54	0xbe0a6074	-0.13513356
55	0x3e21a235	0.15784533
56	0x3e17a8e3	0.14810519
57	0xbf0da612	-0.5533153
58	0x3d91ad1a	0.07113095
59	0xbd4fd40c	-0.050739333
60	0x3c732bfa	0.014842028
61	0xbe815f29	-0.25267914
62	0xbd114ebb	-0.035475474
63	0xbf08c557	-0.53426117
64	0x3d19c016	0.037536703
65	0xbe3dff18	-0.18554342
66	0x3dd3a3ef	0.10334002
67	0xbe888867	-0.26666567
68	0x3e341504	0.17586142
69	0xbe9fedc3	-0.31236085
70	0xbe8f4707	-0.27983877
71	0x3db7b7e1	0.08970619
72	0xbee166c4	-0.44023716
73	0x39255647	0.00015767767
74	0x3c020a6e	0.007937057
75	0x3c786d4d	0.015162778
76	0xbe4d8910	-0.20071816
77	0xbdfbbe68	-0.122921765
78	0x3d00ccbf	0.03144526
79	0xbd1912d1	-0.03737146
80	0x3d19e27a	0.0375695
81	0x3c314c4e	0.010821415
82	0x3dd65f2b	0.104673706
83	0xbe60ab0e	-0.21940252
84	0x3d636e89	0.055525336
85	0x3c717378	0.014737003
86	0x3e98081f	0.29693696
87	0xbd2b2518	-0.041783422
88	0x3c7594dd	0.014989105
89	0x3cc40cd2	0.023931894
90	0x3ed3a4ad	0.41336575
91	0xbe4447d7	-0.1916803
92	0xbe45df20	-0.19323397
93	0xbe1268b8	-0.1429776
94	0x3dde63f4	0.10858908
95	0xbeb88322	-0.36037546
96	0xbdcc8593	-0.09986415
97	0xbc3b2396	-0.011422059
98	0xbe16d033	-0.14727859
99	0xbe4a7b25	-0.19773538
100	0x3d6779a9	0.05651251
101	0xbe26c477	-0.16285883
102	0xbdaeac49	-0.085289545
103	0x3e4dded1	0.20104529
104	0xbbaa4b8b	-0.0051969937
105	0xbe9c2557	-0.30497238
106	0xbe57c898	-0.21072614
107	0xbe312b19	-0.17301597
108	0xbe136d09	-0.14397062
109	0xbd807e34	-0.06274071
110	0x3d55e64f	0.052221593
111	0xbdfc60d3	-0.12323155
112	0xbe253605	-0.16133888
113	0x3e82e5c3	0.2556592
114	0xbf16b5cc	-0.5887115
115	0xbe92c128	-0.28662992
116	0xbcc61ca6	-0.024183583
117	0x3d1664ec	0.03671734
118	0xbee8cebe	-0.45470232
119	0x3d1348fa	0.035958268
120	0xbe2c8605	-0.16848
121	0xbd9a4a6e	-0.075337276
122	0x3e9e7e9c	0.3095597
123	0x3d2ea3d1	0.042636696
124	0x3d8d3fe0	0.06896949
125	0xbea0f0b1	-0.31433633
126	0x3e65a72b	0.22427051
127	0xbe93831f	-0.28810975
128	0x3d836153	0.064150475
129	0x3b244925	0.0025068012
130	0xbf07a44a	-0.5298506
131	0x3e749adf	0.23887204
132	0xbe962c94	-0.29330885
133	0xbd525f55	-0.051360447
134	0xbe08a1a7	-0.13342915
135	0xbeae2c57	-0.34018204
136	0x3d04e2e7	0.032442953
137	0xbddc3a5a	-0.10753317
138	0xbdcb1e77	-0.0991792
139	0xbdbcb01a	-0.09213276
140	0xbe3b3ef1	-0.18285729
141	0xbe0f922a	-0.14020601
142	0x3e8688ae	0.26276153
143	0x3cb43035	0.021995643
144	0xbd179253	-0.03700478
145	0x3da1e133	0.079042815
146	0xbec4ee98	-0.38463283
147	0xbe212200	-0.15735626
148	0x3d6e220c	0.05813794
149	0xbe860805	-0.26177993
150	0x3e1ddf7c	0.15417284
151	0xbd9d6b31	-0.07686461
152	0xbb13bb1b	-0.0022541943
153	0xbe039353	-0.12849168
154	0x3d3d38e5	0.046196837
155	0x3e14d471	0.14534165
156	0x3d871bdd	0.065971114
157	0x3e188982	0.14896205
158	0x3ca22ebf	0.01979768
159	0xbd3ab79f	-0.04558527
160	0x3db9c198	0.09070128
161	0x3be5f70d	0.007017976
162	0xbd14cc4f	-0.036327656
163	0x3e363866	0.17794952
164	0xbb312a47	-0.0027033256
165	0xbe832d67	-0.25620577
166	0xbec219af	-0.3791022
167	0x3e2ad48c	0.16682643
168	0x3d02ffc5	0.031982202
169	0xbcdb23af	-0.026750414
170	0xbce4594d	-0.027874613
171	0xbec5138c	-0.38491476
172	0xbe0293ee	-0.12751743
173	0xbeb98db5	-0.36240926
174	0xbee43109	-0.4456866
175	0xbce36f7c	-0.02776312
176	0xbe176303	-0.14783864
177	0xbec3ad5e	-0.38218206
178	0xbcae73fd	-0.021295542
179	0x3dd62525	0.104563035
180	0x3e0a27fb	0.13491814
181	0xbe5efa60	-0.21775198
182	0xbe60e8b4	-0.21963769
183	0xbd19e89c	-0.03757535
184	0x3e05ebd1	0.13078238
185	0xbe0e7b66	-0.1391426
186	0xbd4216af	-0.047384914
187	0xbe0640b8	-0.13110626
188	0xbe9dfc5a	-0.3085659
189	0xbe038b79	-0.12846173
190	0x3da6d343	0.08145764
191	0xbda91ce8	-0.082574666
192	0x3daca877	0.084305696
193	0x3c8419ac	0.016125523
194	0x3e62f50f	0.22163795
195	0x3dded169	0.108797856
196	0x3d2ba348	0.041903764
197	0xbd5b6a67	-0.05356827
198	0xbe5250cd	-0.20538636
199	0xbe94bf94	-0.29052413
200	0xbe1254ba	-0.14290133
201	0x3e685e6d	0.2269227
202	0xbe41bec6	-0.1892043
203	0x3dc97cb1	0.09838236
204	0x3df3ce22	0.11904551
205	0x3e85148e	0.25992244
206	0xbdf2b332	-0.11850585
207	0x3c06851f	0.0082104495
208	0xbdc55798	-0.09635848
209	0xbd20b1df	-0.03923213
210	0xbe92166b	-0.2853273
211	0x38e921a1	0.0001111657
212	0xbe1ab4dc	-0.15108055
213	0x3d714d2e	0.058911495
214	0xbdc54b8a	-0.096335486
215	0x3cc11530	0.023569673
216	0xbe3287a8	-0.17434561
217	0x3de7f5e0	0.11326194
218	0xbdd0f500	-0.1020298
219	0xbde98469	-0.11402208
220	0xbd565656	-0.05232843
221	0x3e29187b	0.16513245
222	0x3baa14a7	0.00519045
223	0xbd7090de	-0.058731906
224	0xbd576f73	-0.05259652
225	0xbb91222e	-0.0044291234
226	0x3d0fe24c	0.035127923
227	0xbd6c2f4e	-0.0576623
228	0x3d8fd6d1	0.07023395
229	0x3e3f31f2	0.18671396
230	0x3e70843e	0.23487946
231	0x3d64628a	0.055758037
232	0xbc2d5ef8	-0.010581724
233	0xbc33c8dc	-0.010973182
234	0x3eb6f97b	0.35737213
235	0x3e0e4483	0.13893323
236	0xbe067753	-0.13131456
237	0xbeab159f	-0.33414933
238	0xbd42bb1b	-0.04754172
239	0x3e2f0f2d	0.17095633
240	0x3dc0d6dd	0.09415982
241	0x3e0f839f	0.14015053
242	0x3da8c3bc	0.08240458
243	0xbe902fa9	-0.28161362
244	0xbc4318f6	-0.011907807
245	0xbe60c0b4	-0.2194851
246	0xbd0224d4	-0.031773403
247	0xbda03328	-0.07822257
248	0xbb480785	-0.003052206
249	0xbd131dd5	-0.035917122
250	0xbe5d4e45	-0.21611889
251	0x3de9e114	0.11419883
252	0x3e00a1c4	0.12561709
253	0x3e58e03f	0.21179293
254	0x3f29da6e	0.6634892
255	0x3e114b72	0.14188936

fc2.bias f4 [64]
0	0xbd9d11a0	-0.07669377
1	0xbd18a0b4	-0.037262633
2	0x3e661415	0.22468598
3	0xbd1ee38e	-0.03879123
4	0xbd5b69c6	-0.05356767
5	0xbe2c8488	-0.16847432
6	0x3d834055	0.06408755
7	0x3dcd3905	0.10020641
8	0xbe3b5579	-0.18294324
9	0xbdcaee15	-0.09908692
10	0xbca68b7c	-0.020330183
11	0x3ea6048d	0.32425347
12	0x3c85a62d	0.01631459
13	0x3cae4e9a	0.021277715
14	0x3d1805ea	0.037115015
15	0xbba7f12c	-0.0051251855
16	0xbcdb6b90	-0.026784688
17	0xbc794045	-0.015213077
18	0xbda90360	-0.08252597
19	0x39ea3837	0.0004467384
20	0xbcd9e510	-0.026598483
21	0x3da4a39e	0.0803902
22	0xbbf6d7f1	-0.0075330664
23	0x3d4ad935	0.04952355
24	0xbd1d5512	-0.038411207
25	0x3d0e0f83	0.034682762
26	0x3ebe711d	0.37195674
27	0x3d4f86de	0.05066573
28	0xbe08061e	-0.13283584
29	0xbdd1f74a	-0.10252245
30	0x3d6e24cb	0.058140557
31	0x3ed9440f	0.42434737
32	0xbd53a4a1	-0.051670674
33	0x3d668b15	0.056284983
34	0x3e94e6d9	0.29082373
35	0xbe2973c0	-0.16548061
36	0xbd04aca5	-0.03239121
37	0x3cdf5faa	0.027267296
38	0x3cc3e062	0.023910705
39	0xbc96495d	-0.01834553
40	0x3e15ae99	0.14617385
41	0xbdc6ef71	-0.097136386
42	0x3bd1c999	0.006402206
43	0x3e87ab3e	0.26497835
44	0x3ef54a2c	0.4790815
45	0x3dad9352	0.08475365
46	0xbcece401	-0.028917314
47	0xbdd59faa	-0.10430844
48	0x3d86106b	0.065461
49	0x3d011d49	0.03152207
50	0xbd2ebc67	-0.042660143
51	0xbd5db60f	-0.054128703
52	0xbdee5e2f	-0.11639058
53	0x3ee5304b	0.44763407
54	0x3ec46ef2	0.38365895
55	0x3ee43f3b	0.4457949
56	0xbc324293	-0.01088013
57	0x3efdc491	0.4956403
58	0x3ea94610	0.33061266
59	0x3db9b8a2	0.09068419
60	0x3dcfaceb	0.10140403
61	0xbbbf2ab3	-0.0058339476
62	0xbdbdbeb8	-0.09264892
63	0xbcea6421	-0.028612198

fc3.weight f4 [4, 64]
0	0x3ea8e4e7	0.3298714
1	0x3e5cc144	0.215581
2	0x3e0504a3	0.1299005
3	0x3e9a92aa	0.3019002
4	0x3ee26ab5	0.44222036
5	0xbe91f453	-0.28506717
6	0x3e63d8e3	0.22250704
7	0x3e003136	0.12518772
8	0xbe81f5e7	-0.2538292
9	0x3e93c2a0	0.28859425
10	0x3ee1da51	0.44111875
11	0x3e11a432	0.14222792
12	0x3cea2783	0.028583294
13	0x3e9193e4	0.28433144
14	0x3d1ec961	0.03876627
15	0x3da4ac53	0.08040681
16	0xbe861ea4	-0.26195252
17	0x3c320baf	0.010867043
18	0x3e6059a3	0.21909194
19	0x3e7da6bf	0.2477064
20	0x3eb6c2d4	0.35695517
21	0x3e8e1097	0.27747032
22	0x3e90f885	0.28314605
23	0x3d7ed9a8	0.062219292
24	0x3e09f152	0.13470963
25	0x3cce61ad	0.02519306
26	0x3e587f20	0.21142244
27	0x3c48f64a	0.012265751
28	0xbd250560	-0.04028833
29	0xbdc5b02a	-0.09652741
30	0x3d389294	0.045061663
31	0x3e309e57	0.17247902
32	0x3db694da	0.0891511
33	0x3e0a256f	0.13490842
34	0x3e35b60e	0.1774523
35	0xbea01c59	-0.31271628
36	0xbec75694	-0.3893324
37	0xbd3caaa6	-0.04606118
38	0xbf28eb6f	-0.65984243
39	0x3f146080	0.5795975
40	0x3e452156	0.19250998
41	0xbe2bad7a	-0.16765395
42	0x3d9c609a	0.07635613
43	0x3e256e4c	0.16155356
44	0x3db3a7a4	0.08772209
45	0xbda40c46	-0.080101535
46	0xbe688649	-0.22707476
47	0xbe35cdfd	-0.1775436
48	0x3d28c8a7	0.041206982
49	0x3db06b48	0.08614212
50	0xbe62d765	-0.22152479
51	0x3d978b19	0.07399578
52	0xbe8309d2	-0.2559343
53	0x3e1c11b6	0.15241131
54	0x3e0d4d1a	0.13798943
55	0x3dfb654d	0.12275181
56	0xbf1337d9	-0.5750709
57	0x3e2b0b4c	0.16703528
58	0x3dfabd92	0.12243189
59	0x3e649c69	0.2232529
60	0x3dc75dc6	0.09734683
61	0x3e96c53c	0.29447353
62	0xbcdcc5cb	-0.026949784
63	0x3efa9643	0.48942766
64	0x3ee7ae49	0.45250157
65	0x3e8b97d5	0.27264276
66	0x3cb75667	0.022380067
67	0xbdaa829f	-0.08325695
68	0x3e8a1d03	0.2697526
69	0xbe2c8e19	-0.16851081
70	0x3e14e0d5	0.14538892
71	0x3d921e0e	0.07134639
72	0xbe9f9aa1	-0.3117266
73	0x3efa5a21	0.48896888
74	0xbe2ada85	-0.16684921
75	0x3dcde65b	0.100537024
76	0x3e96b01c	0.29431236
77	0x3e87b2b8	0.2650354
78	0x3da06cbf	0.07833242
79	0xbf0da310	-0.5532694
80	0xbeb1e83c	-0.34747493
81	0x3e908571	0.28226808
82	0x3ead15b8	0.33805633
83	0x3e844e20	0.25840855
84	0x3ee32ef2	0.44371754
85	0xbe10c93c	-0.14139265
86	0x3e6c295a	0.2306265
87	0x3e51625a	0.20447674
88	0x3efeed23	0.49790296
89	0xbdd9de5f	-0.10638117
90	0x3e1bffbf	0.15234278
91	0x3d6468e0	0.05576408
92	0xbc81fd79	-0.015867935
93	0xbe3d1aed	-0.18467303
94	0xbed8da78	-0.42354178
95	0x3de65d21	0.11248232
96	0xbd4da4fc	-0.05020617
97	0x3c5a6c05	0.013331418
98	0x3de66ba5	0.11251
99	0xbd58e16f	-0.052949365
100	0xbe0c5df1	-0.13707711
101	0xbe741a84	-0.2383824
102	0xbd288e8e	-0.041151576
103	0x3ee0afac	0.43884027
104	0x3e642895	0.22281106
105	0xbd47fe53	-0.048826527
106	0xbe4785c1	-0.19484617
107	0x3e17ce8c	0.14824885
108	0x3e53bfdc	0.20678657
109	0xbc65792f	-0.014005943
110	0xbd6e433a	-0.05816958
111	0xbcd54a53	-0.026036417
112	0x3e37c8e2	0.17947724
113	0x3df396a7	0.11893969
114	0xbeb113ce	-0.34585422
115	0x3e141916	0.14462695
116	0xbf1c715d	-0.6111048
117	0x3e12a979	0.14322461
118	0x3e0e0a09	0.13871016
119	0x3de64737	0.11244052
120	0x3d600c29	0.054699097
121	0x3e155ee0	0.14586973
122	0x3d8e2e98	0.06942481
123	0x3e88574f	0.2662911
124	0x3d68d36e	0.05684226
125	0x3e8250d8	0.25452304
126	0xbdf94325	-0.1217101
127	0x3ebc7eac	0.36815393
128	0x3cee1fef	0.029067961
129	0x3d4c4085	0.049866218
130	0x3dae195b	0.0850093
131	0x3c2efc93	0.010680336
132	0x3e915a19	0.28389052
133	0xbcfd09c2	-0.030888442
134	0xbdf56905	-0.119829215
135	0x3e4dfc9d	0.20115896
136	0xbdd39d3e	-0.10332726
137	0xbae10603	-0.0017167929
138	0xbe60078e	-0.21877882
139	0x3e219067	0.15777741
140	0xbe86430b	-0.26223025
141	0x3e9381a1	0.28809837
142	0x3cb86c4f	0.022512583
143	0x3dcadf9b	0.099059306
144	0xbeceb7d6	-0.4037463
145	0x3e29f7df	0.16598462
146	0x3eb5cdde	0.35508627
147	0x3e2cb18b	0.16864602
148	0x3cbe802d	0.023254478
149	0xbe644226	-0.22290859
150	0x3e90e129	0.28296784
151	0x3d82095d	0.06349442
152	0x3f2ac533	0.6670715
153	0x3eee87ce	0.46587986
154	0x3e1aad95	0.15105279
155	0x3e9521d6	0.29127377
156	0xbd8dc421	-0.06922174
157	0xbf126e26	-0.57199323
158	0x3ea1c977	0.31599018
159	0x3dad485d	0.08461068
160	0xbec9d1ce	-0.3941788
161	0x3ed9236b	0.42409834
162	0x3e2ffe50	0.17186856
163	0xbea0bad2	-0.31392533
164	0xbe96218d	-0.29322472
165	0xbe0aeaa8	-0.13566077
166	0xbea4aa85	-0.32161346
167	0x3ecf675e	0.4050855
168	0x3e43b5ee	0.1911237
169	0xbe985982	-0.2975579
170	0xbec847c8	-0.39117265
171	0x3cdd4371	0.027009698
172	0x3e105537	0.14095007
173	0xbeab8cba	-0.33505803
174	0xbeaf05a9	-0.34184006
175	0xbe5180a8	-0.20459235
176	0x3c2a8ff4	0.010410298
177	0x3d150688	0.03638318
178	0xbdb11bb3	-0.08647861
179	0x3e711e15	0.23546632
180	0xbdf46694	-0.11933628
181	0x3e1a8a77	0.15091883
182	0x3cb7387b	0.0223658
183	0x3e2cb054	0.16864139
184	0x3e064a6d	0.13114329
185	0x3e5c1ef7	0.21496187
186	0x3d1fe660	0.039038062
187	0x3d87fb2c	0.06639704
188	0x3e95b61e	0.29240507
189	0x3eb9b573	0.36271247
190	0xbe87f0e0	-0.2655096
191	0x3e17b0f2	0.14813593
192	0x3e6daea2	0.23211148
193	0xbe8f6cad	-0.280126
194	0x3d272d6d	0.040814806
195	0x3ed3fd90	0.4140439
196	0x3e391eb7	0.18078123
197	0xbd807477	-0.06272214
198	0xbc91c0cd	-0.01779213
199	0xbee4f7f2	-0.44720417
200	0xbeef2168	-0.46705174
201	0xbe35256c	-0.17690057
202	0xbe6a5157	-0.22882591
203	0x3e0db7e5	0.13839681
204	0xbeb41dcb	-0.3517898
205	0x3c9c964c	0.019114636
206	0x3e5cb643	0.21553902
207	0xbe23c4db	-0.15993063
208	0xbda020ba	-0.07818742
209	0x3f02b933	0.5106384
210	0x3d3acc64	0.04560508
211	0x3ed20675	0.4102055
212	0x3ea92ff6	0.33044404
213	0x3ec5e378	0.38650107
214	0xbe2048b3	-0.15652733
215	0x3e56bb8f	0.20969985
216	0xbd8eef6e	-0.06979261
217	0x3dcba227	0.099430375
218	0x3e5cd284	0.2156468
219	0x3e349566	0.17635116
220	0x3e2af3b4	0.16694528
221	0xbef0a60d	-0.47001687
222	0x3d079497	0.03310069
223	0x3e4b1374	0.1983164
224	0xbe12333d	-0.14277358
225	0x3ea2166f	0.3165774
226	0x3e5f1fd7	0.2178949
227	0xbf10c597	-0.565515
228	0xbf0a6409	-0.5405889
229	0xbeaa0808	-0.33209252
230	0x3dc58dd5	0.09646193
231	0x3ea4025b	0.32033047
232	0x3de440f7	0.111452036
233	0x3cd7db97	0.026349826
234	0x3d7cb0ab	0.06169192
235	0x3c3cd8ba	0.011526281
236	0x3e286294	0.16443855
237	0xbeffa327	-0.49929163
238	0xbbb8b6ec	-0.0056370404
239	0xbe79edf9	-0.24407186
240	0xbc9e9826	-0.01935966
241	0x3da3901c	0.07986471
242	0xbeaf6344	-0.3425542
243	0x3e7d5b8c	0.24741954
244	0x3eba4a05	0.36384597
245	0x3d851502	0.064981475
246	0x3e142bbd	0.1446981
247	0x3e1d4d8a	0.1536161
248	0xbe257d4c	-0.16161078
249	0x3df8cc29	0.121483155
250	0x3ddb0298	0.10693854
251	0x3da6164a	0.0810972
252	0x3e9ef65c	0.31047332
253	0x3e8bcfd3	0.27306995
254	0xbeba6591	-0.36405614
255	0x3f1533a8	0.58281946

fc3.bias f4 [4]
0	0x3e8f3271	0.2796817
1	0x3e85dc94	0.2614485
2	0x3ec6daa6	0.3883869
3	0x3ea616e2	0.32439333
